FashionClassifier Models summary:
1 - Simple dense layer network (0.88)
2 - 2 Layer Convnet with leakyrelu (0.92)
3 - Pre-built feature vector from imagenet using tf_hub
4 - VGG19 transfer learned, by upscaling the dimensionality of the dataset ()


MODEL 1:
Model: "sequential"
_________________________________________________________________
Layer (type)                 Output Shape              Param #
=================================================================
flatten (Flatten)            (None, 784)               0
_________________________________________________________________
dense (Dense)                (None, 128)               100480
_________________________________________________________________
dense_1 (Dense)              (None, 10)                1290
=================================================================
Total params: 101,770
Trainable params: 101,770
Non-trainable params: 0
_________________________________________________________________
None
313/313 - 1s - loss: 0.3404 - accuracy: 0.8816

Test accuracy acheived: 0.881600022315979



MODEL 2:
1875/1875 [==============================] - 20s 11ms/step - loss: 0.1740 - accuracy: 0.9362 - val_loss: 0.2412 - val_accuracy: 0.9171
Model: "sequential"
_________________________________________________________________
Layer (type)                 Output Shape              Param #
=================================================================
conv2d (Conv2D)              (None, 28, 28, 16)        160
_________________________________________________________________
leaky_re_lu (LeakyReLU)      (None, 28, 28, 16)        0
_________________________________________________________________
max_pooling2d (MaxPooling2D) (None, 14, 14, 16)        0
_________________________________________________________________
conv2d_1 (Conv2D)            (None, 14, 14, 32)        4640
_________________________________________________________________
leaky_re_lu_1 (LeakyReLU)    (None, 14, 14, 32)        0
_________________________________________________________________
max_pooling2d_1 (MaxPooling2 (None, 7, 7, 32)          0
_________________________________________________________________
flatten (Flatten)            (None, 1568)              0
_________________________________________________________________
dense (Dense)                (None, 18)                28242
_________________________________________________________________
leaky_re_lu_2 (LeakyReLU)    (None, 18)                0
_________________________________________________________________
dense_1 (Dense)              (None, 10)                190
_________________________________________________________________
leaky_re_lu_3 (LeakyReLU)    (None, 10)                0
_________________________________________________________________
activation (Activation)      (None, 10)                0
=================================================================
Total params: 33,232
Trainable params: 33,232
Non-trainable params: 0
_________________________________________________________________
None
313/313 - 1s - loss: 0.2412 - accuracy: 0.9171

Test accuracy acheived: 0.9171000123023987

MODEL 3:
This model encorporates the pretrained neural network




MODEL 4:
Model: "sequential"
_________________________________________________________________
Layer (type)                 Output Shape              Param #
=================================================================
block1_conv1 (Conv2D)        (None, 224, 224, 64)      1792
_________________________________________________________________
block1_conv2 (Conv2D)        (None, 224, 224, 64)      36928
_________________________________________________________________
block1_pool (MaxPooling2D)   (None, 112, 112, 64)      0
_________________________________________________________________
block2_conv1 (Conv2D)        (None, 112, 112, 128)     73856
_________________________________________________________________
block2_conv2 (Conv2D)        (None, 112, 112, 128)     147584
_________________________________________________________________
block2_pool (MaxPooling2D)   (None, 56, 56, 128)       0
_________________________________________________________________
block3_conv1 (Conv2D)        (None, 56, 56, 256)       295168
_________________________________________________________________
block3_conv2 (Conv2D)        (None, 56, 56, 256)       590080
_________________________________________________________________
block3_conv3 (Conv2D)        (None, 56, 56, 256)       590080
_________________________________________________________________
block3_conv4 (Conv2D)        (None, 56, 56, 256)       590080
_________________________________________________________________
block3_pool (MaxPooling2D)   (None, 28, 28, 256)       0
_________________________________________________________________
block4_conv1 (Conv2D)        (None, 28, 28, 512)       1180160
_________________________________________________________________
block4_conv2 (Conv2D)        (None, 28, 28, 512)       2359808
_________________________________________________________________
block4_conv3 (Conv2D)        (None, 28, 28, 512)       2359808
_________________________________________________________________
block4_conv4 (Conv2D)        (None, 28, 28, 512)       2359808
_________________________________________________________________
block4_pool (MaxPooling2D)   (None, 14, 14, 512)       0
_________________________________________________________________
block5_conv1 (Conv2D)        (None, 14, 14, 512)       2359808
_________________________________________________________________
block5_conv2 (Conv2D)        (None, 14, 14, 512)       2359808
_________________________________________________________________
block5_conv3 (Conv2D)        (None, 14, 14, 512)       2359808
_________________________________________________________________
block5_conv4 (Conv2D)        (None, 14, 14, 512)       2359808
_________________________________________________________________
block5_pool (MaxPooling2D)   (None, 7, 7, 512)         0
_________________________________________________________________
dense (Dense)                (None, 7, 7, 600)         307800
_________________________________________________________________
leaky_re_lu (LeakyReLU)      (None, 7, 7, 600)         0
_________________________________________________________________
dense_1 (Dense)              (None, 7, 7, 200)         120200
_________________________________________________________________
leaky_re_lu_1 (LeakyReLU)    (None, 7, 7, 200)         0
_________________________________________________________________
dense_2 (Dense)              (None, 7, 7, 10)          2010
_________________________________________________________________
leaky_re_lu_2 (LeakyReLU)    (None, 7, 7, 10)          0
_________________________________________________________________
activation (Activation)      (None, 7, 7, 10)          0
=================================================================
Total params: 20,454,394
Trainable params: 20,454,394
Non-trainable params: 0
________________________________________________________________